snapshots_Zero_DCE++/Epoch67.pth (torch, 51217 bytes, 28 tensors)

e_conv1.depth_conv.weight f4 [3, 1, 3, 3]
00000000: 7d23 87be fbf8 9dbe ba5c a9bd 307c 42be
00000010: 57dd 233e ba4c cdbd f8e7 35be e558 4ebd
00000020: e194 3ebe 433c 0f3e 29dd 32be ff7d f0be
00000030: f3e3 a23d c8bb c7bd de9a 96bd db20 d13d
00000040: 0c60 c1bd 5a8a 84be c1cf ad3d 7790 06be
00000050: 08e2 17be 4f45 2b3d f935 1f3e b9ee ea3d
00000060: 86c0 7a3e 76c2 803e 683b 763e
-0.26394263 -0.3085402 -0.08269639 -0.18992686 0.16002403 -0.100244 -0.1776427 -0.050377745
-0.1861148 0.13987832 -0.17467178 -0.46971127 0.07953634 -0.09752613 -0.07353757 0.10211345
-0.094421476 -0.25886804 0.084868915 -0.13141046 -0.14832318 0.041814145 0.15547933 0.11471314
0.24487504 0.25148362 0.24046099

e_conv1.depth_conv.bias f4 [3]
00000000: 325d 80be 8b95 8b3d 4cc1 883e
-0.25071102 0.068156324 0.26709974

e_conv1.point_conv.weight f4 [32, 3, 1, 1]
00000000: a01a 42bc d157 65bd 51b4 d3bd 1f42 363e
00000010: e300 dbbd 4266 b3bc 24e4 b8be b88e b23e
00000020: 77ae 96be c420 80be a71d e2be 767d dd3e
00000030: 1141 ae3d 3634 c63c e122 e03d c7fa c8be
00000040: 73d3 a6bc dc9b fbbd 63c8 c93e 1f5f 013e
00000050: f9bf b03e 749b bcbe e794 a4be 1ac2 b43e
00000060: 2a91 603d d402 203d 1d0e 933d cd23 e4be
00000070: 2b21 96be d9f2 76be e162 0000 7b20 0080
00000080: e2cb 0000 50b8 293b 34e0 74bc 7b5c c0bb
00000090: 5321 c3bc 8a21 083e 6395 323d 4b3d 85b8
000000a0: abd8 07ba f7ce b137 7269 04bd 0f35 8abe
000000b0: 6eb2 84be 5943 91be d11d 44bd 2baf 92be
000000c0: fec7 dfbc ed2e 7cbe 2040 8b3e a6a1 b4be
000000d0: 3914 44be a3a5 5bbe 58a3 a5bd 9a5c 8abc
000000e0: 1ad8 8fbc c7c0 19be e2ba 423c 3ea6 4fbd
000000f0: 899c 9cbe 624d cb3d 0ea6 863e 4784 cfbe
00000100: 83e4 5bbe ac23 f03e e985 65bc 9667 60ba
00000110: 1d18 bc3a c702 793c bdbd 45be 3b22 96bc
00000120: 19d3 45be 6779 403c 5f9c c23e b848 153e
00000130: ebfb b23d 455f 09be 3ec5 9b3d 11e2 b0bd
00000140: 90ac b1bc 7ff4 f939 14ed 143c 508e 7bbb
00000150: 6240 8e3a da9d 4b37 ec16 46ba 4ad8 1d2d
00000160: 54e7 c42b 10ab fbac cbdd 0000 e440 0000
00000170: 041e 0080 93aa d93e 2518 713d 7048 193e
-0.011847168 -0.05599195 -0.10337127 0.1779866 -0.106935285 -0.021899346 -0.36111557 0.3487451
-0.2942998 -0.25024998 -0.44163248 0.43259782 0.08508504 0.024194818 0.109441526 -0.39253828
-0.020364499 -0.12285587 0.39410695 0.12633942 0.34521464 -0.3683735 -0.32144853 0.35304338
0.05482594 0.039065197 0.07180426 -0.44558564 -0.2932218 -0.24116077 3.5471e-41 -1.1652e-41
7.314e-41 0.0025897212 -0.014946032 -0.0058703995 -0.023819601 0.13294044 0.043599498 -6.353351e-05
-0.00051821274 2.119642e-05 -0.032327123 -0.26993605 -0.2591738 -0.28371695 -0.047879998 -0.28649268
-0.027317043 -0.24627276 0.2719736 -0.35279578 -0.1914834 -0.21449904 -0.08087796 -0.016889859
-0.0175591 -0.15014945 0.011885377 -0.05069565 -0.30588177 0.09926869 0.26298565 -0.40530607
-0.21473889 0.46902215 -0.014008977 -0.00085603574 0.0014350448 0.015198416 -0.1931066 -0.01832687
-0.19318809 0.011747695 0.38009927 0.14578521 0.08739456 -0.13415249 0.0760598 -0.08636869
-0.02168873 0.00047675145 0.009089727 -0.0038384385 0.0010852928 1.2136496e-05 -0.0007556516 8.972443e-12
1.3990844e-12 -7.152841e-12 7.9564e-41 2.3278e-41 -1.0768e-41 0.4251295 0.058860917 0.14969039

e_conv1.point_conv.bias f4 [32]
00000000: e021 4b3d bc33 3b3e a89f 133e f99d 883e
00000010: 7c23 ca3d 7f7a 773e f8c7 0c3f 47c5 8fbe
00000020: 1f13 ea3c 538a bf3e 0b46 0000 6236 b63b
00000030: ed10 0c3d 097f 4ab9 73e2 763e 2f99 d13e
00000040: 393d 003f eeaf 903e ca0a 37bd 5a05 b8bd
00000050: 89b8 973e 12d9 94be f0f0 60bc 5298 aaba
00000060: 00e5 babd 070e ee3e 9037 3d3d 7268 c13b
00000070: 2c42 733a a2e0 23ad 7b04 0080 8026 053f
0.049592853 0.18281454 0.14416373 0.26683024 0.09870049 0.24167822 0.5499263 -0.28080198
0.02857357 0.3741022 2.5127e-41 0.005560682 0.03419583 -0.00019311545 0.24109821 0.40937182
0.5009342 0.28259224 -0.044688024 -0.08985396 0.29632977 -0.29071862 -0.013729319 -0.0013015366
-0.091257095 0.46495077 0.046195567 0.0059023434 0.0009279575 -9.315356e-12 -1.607e-42 0.5201187

e_conv2.depth_conv.weight f4 [32, 1, 3, 3]
00000000: cdda a43b 3f01 6f3b 6fb3 423b be3a 463b
00000010: 21ea b53b 07cd 903b f1bf b1bb c6a8 ba3b
00000020: 84b6 fe3b 4167 563d 4efb 8b3c 157a 0a3c
00000030: 4e4e 8f3c 9412 5f3c 266e 453c e093 02bd
00000040: a03d bf3b b44b 4d3c 5487 903e 93dc 493e
00000050: d2a3 863e f400 f13d d60b 3f3c f287 243e
00000060: 86b8 e23d 398b 783d 16ce 803e 5951 a6bc
00000070: a73c 43be f7b9 363e d0d4 863d 4bba 5ebe
00000080: b6f3 6a3e 4b44 1c3e a75e 0d3c 7b70 7c3e
00000090: 3287 d83b 2c19 8a3b 5cb7 8e3b 78e8 473c
000000a0: 276b a23b 3209 003b c5ba a03c 306b ee3b
000000b0: 3911 15bb a04e 953d cc47 82bd ffe8 f03d
000000c0: a676 153e f664 c83a 9716 b73d 0851 d1bd
000000d0: 841b e13d d48f 853d 893f cabe 77b0 22be
000000e0: ca05 bebe 2b1c 0abe 38b0 e1bc 5202 243d
000000f0: 9261 a5bd de28 993d 768f 09be 08ff d7be
00000100: b981 45be 666c a0be fb6d a1bd 1dda f33d
00000110: f07b a0be 894d babd 9f99 8bbe 04a2 5cbc
00000120: 31f2 15ba 6571 4e39 50df 503a 31da 8cba
00000130: eeac 9bba 2d80 d7ba 78f4 a63a 3615 8639
00000140: 3fa3 97b9 0741 34be 4f56 b33c ecfa 19be
00000150: 83c2 7b3d 0bb5 01be 6c84 74be 5410 023e
00000160: f5f1 a8bd 1656 74bd 788b 0100 e750 0100
00000170: 026a 0100 6707 0100 ac68 0000 362d 0100
00000180: aa4f 0100 7ca0 0100 e363 0100 52aa cb35
00000190: c420 f535 52c6 0836 f69d 0436 b6e2 0436
000001a0: e145 1536 21ce 0236 c386 f335 5c4f 0936
000001b0: 72c1 c93a fa9f 2bbb 1630 57ba 61ff fcbb
000001c0: c4ec e2ba 4fd2 0cbb 6998 97bc 19e3 303b
000001d0: 9cdc 22bb 25c4 84b6 5b3c ac36 f6b1 6eb7
000001e0: 1fe1 6738 5b8a 6938 d106 3738 92c8 bc38
000001f0: 8b49 a438 4f13 9f38 fad7 043e f55a f3bc
00000200: bc48 5cbd 029b 293e 804b 583c 78a6 aabd
00000210: 52c9 cd3e 7f4a d33d 1e4e 9a3d 3b13 e2bd
00000220: 22fa efbd 40cc 493c 28eb 25bd 0e97 b6bd
00000230: de6f 343d 1f9d f73b 2c2f 39bd 2f3f 6e3d
00000240: 3caa 0dbe 7ca7 d4bd eae8 08bd c6eb 113d
00000250: be98 213d 7ae4 053d 539a fa3c 247e b43d
00000260: d30c 273e 3aca 003e eec9 5c3e d83e bc3e
00000270: 9bbc b43d 7868 0ebc a3a8 87bd 8607 cebc
00000280: badd e83c cf0c 183d 2744 b938 90e2 c139
00000290: b88e 343a 93cb 4c39 62d1 14b8 c387 0638
000002a0: 6934 05b9 c9cd 5eba 8f99 6fba f5df d7b7
000002b0: 76cf acb8 4bd1 d0b8 f547 aab8 0ce2 63b8
000002c0: fdc1 38b8 c18a 3437 3762 cf38 7c34 fc38
000002d0: 1881 02be b29b 743c 9e63 913d eced c3bd
000002e0: 4de5 86bd db88 1dbe d4b9 b3be 32b3 c4bd
000002f0: a2f8 1c3e 2117 cdbc 308f fcbc 164f 1c3e
00000300: 70a7 06be da7b 213c df51 053e ed12 773e
00000310: 094a 3a3e f13e 8b3e 299d 1e3a 7af3 143a
00000320: 35c5 9c38 bbf9 353a 1454 b63a 6aed b53a
00000330: 4582 8b39 759d f03a bd49 083b cfd5 56bc
00000340: abee 01bc 30ec 0dbd b8a5 9c3c 32cc fd3b
00000350: f2a4 52bc ca3e ea3c 15b1 c23b c57e 15bc
00000360: e917 33be 6cc7 e0bd 0b7d d6bb 03d7 41be
00000370: 581a 503d 6772 e33d 9d05 2dbe 5585 5cbd
00000380: affc 0a3d 219f b7bd d7bd f7bd 7ba8 b5bd
00000390: 949e a6bd c82f 30bd dd05 50be c072 16be
000003a0: 5baa 46be c334 9dbe 76f5 babb 939f 87ba
000003b0: 2030 39bb f620 813b e7d6 9c3a cd6b 04bb
000003c0: df8a 393c cf5a eeb6 8345 78bb c8bd 3b39
000003d0: efdc dd39 52bb 9539 44f6 b239 f1e4 123a
000003e0: 5d7d 113a d529 9639 a15b d539 d3d7 103a
000003f0: b278 0d39 35a1 9438 57d3 6938 dd29 ca38
0.005030966 0.0036469249 0.0029709002 0.0030247415 0.005551592 0.0044189724 -0.0054244925 0.005696389
0.0077732224 0.052344564 0.017087605 0.008451958 0.017493393 0.013615269 0.012050187 -0.031879306
0.0058362037 0.012530256 0.28228247 0.19713049 0.2629686 0.1176776 0.011660537 0.16067484
0.11070351 0.060679648 0.2515723 -0.020302461 -0.19066106 0.17844377 0.065835595 -0.21750753
0.22944531 0.15260427 0.008628524 0.24652283 0.0066079134 0.0042144265 0.0043553542 0.012201421
0.004956621 0.001953673 0.019620309 0.0072759613 -0.0022745861 0.07290387 -0.063613504 0.117631905
0.14596042 0.0015288878 0.089398555 -0.102205336 0.10991576 0.06521574 -0.39501598 -0.15887628
-0.37113792 -0.13487308 -0.027549848 0.040041275 -0.08075251 0.07478498 -0.13433632 -0.4218676
-0.19287767 -0.313327 -0.07882305 0.11906836 -0.31344557 -0.0909682 -0.2726564 -0.013466362
-0.0005719988 0.00019687934 0.00079678465 -0.0010746178 -0.0011877099 -0.0016441398 0.0012737652 0.00025574275
-0.00028922592 -0.17602931 0.021891741 -0.15037125 0.061464798 -0.12666719 -0.2387864 0.12701541
-0.08249275 -0.05965241 1.41867e-40 1.20858e-40 1.29864e-40 9.4491e-41 3.7549e-41 1.08054e-40
1.20414e-40 1.49406e-40 1.27668e-40 1.5174248e-06 1.8263459e-06 2.0381017e-06 1.9761478e-06 1.9801496e-06
2.2243405e-06 1.9491492e-06 1.8144132e-06 2.0460784e-06 0.0015392734 -0.0026187883 -0.00082087645 -0.007720873
-0.0017312993 -0.0021487658 -0.018505292 0.002699083 -0.0024850732 -3.956741e-06 5.1330258e-06 -1.422734e-05
5.5284352e-05 5.5680383e-05 4.363695e-05 9.001898e-05 7.833828e-05 7.585307e-05 0.12973014 -0.029706458
-0.053780302 0.16563037 0.013201594 -0.08332533 0.40192658 0.103169434 0.07534431 -0.11038824
-0.11717631 0.012316763 -0.040507466 -0.0891553 0.044051997 0.007556572 -0.045211002 0.058165725
-0.1383447 -0.103835076 -0.03342525 0.03562524 0.039452307 0.032688595 0.030591166 0.08813122
0.16313486 0.12577143 0.21561405 0.36766696 0.08825036 -0.0086918995 -0.06623962 -0.025150072
0.02842604 0.03712159 8.834182e-05 0.0003698063 0.0006887722 0.00019530793 -3.5480953e-05 3.2074528e-05
-0.00012703393 -0.00084992923 -0.00091400085 -2.5734285e-05 -8.240242e-05 -9.957197e-05 -8.119635e-05 -5.433154e-05
-4.4049684e-05 1.0761142e-05 9.888823e-05 0.00012026072 -0.12744558 0.014929699 0.070990786 -0.09566864
-0.065867044 -0.15384237 -0.35102713 -0.09604491 0.15329221 -0.025035443 -0.030829996 0.15264544
-0.1314981 0.009856189 0.13019513 0.24128313 0.18192305 0.27196458 0.00060506404 0.0005682033
7.475392e-05 0.0006941815 0.0013910555 0.0013879959 0.00026609204 0.0018357473 0.0020795905 -0.013112499
-0.007930438 -0.034649074 0.01912199 0.0077452892 -0.012856709 0.028594393 0.00594152 -0.0091244625
-0.1748959 -0.10975537 -0.006545668 -0.18929677 0.050806373 0.11105805 -0.16896673 -0.053838093
0.033932384 -0.08965898 -0.12096756 -0.08870026 -0.08135715 -0.043014318 -0.20314737 -0.14692211
-0.19400923 -0.30704316 -0.0057055308 -0.001034724 -0.0028257445 0.003940697 0.0011965901 -0.0020205856
0.011324613 -7.1035242e-06 -0.003788323 0.00017904409 0.00042317013 0.0002855906 0.00034134288 0.0005603573
0.00055499916 0.00028641397 0.00040694795 0.00055253244 0.0001349177 7.087217e-05 5.5748354e-05 9.639908e-05

e_conv2.depth_conv.bias f4 [32]
00000000: bb07 863d 123d ef3d 72b3 bebd abec 873d
00000010: 6969 e43d 844d 593e 5302 493d bda4 0cbc
00000020: 4ca4 e9bc 22b1 34bd de21 ba3d adcd d737
00000030: 362c d3bd fda3 debd ba73 2bbd d86d 83bd
00000040: 695d a7bd 18bb 203e e438 ce3b be21 63b9
00000050: df97 e3bd 8a08 82bd 635a d7bd f58b 0cbe
00000060: 3da4 fd3d 76bf 193e 3bf1 13be d6b0 db3d
00000070: 45ab a23d de61 cb34 142c e1bd bf42 d93c
0.06544443 0.1168157 -0.0931157 0.06636938 0.11152918 0.21220976 0.049074482 -0.008584199
-0.028520726 -0.04411424 0.09088491 2.5725773e-05 -0.10311167 -0.10871122 -0.041858412 -0.064174354
-0.081721134 0.1569637 0.006293403 -0.00021660977 -0.111129515 -0.06349285 -0.10515287 -0.13725264
0.123848416 0.15014443 -0.14447491 0.10727088 0.07942823 3.7882904e-07 -0.10994735 0.026521085

e_conv2.point_conv.weight f4 [32, 32, 1, 1]
00000000: 76a4 9ba1 573d b3a1 3b93 cba1 14c3 33a2
00000010: 79fc cda1 4499 29a2 0f4e f721 6768 5722
00000020: 0348 8620 5cd0 4022 fc04 c8a1 fd32 3e9b
00000030: bb04 cb21 1b3f bd21 158a dca1 5710 b521
00000040: e1e8 699f 3ee7 3ba2 bbb9 349f ca4c aa1c
00000050: 3efa 3622 6ae5 17a2 3245 c621 238f 9821
00000060: c21a f620 c36e f420 2a38 9821 c055 c9a1
00000070: e14f bba1 4ca6 ed97 7f5c cc21 9e7e b6a1
00000080: 3dd6 1f3d e99a 923d 3960 333e 3c83 9abd
00000090: 78de a43d f757 433d 950f 2bbe 015f 163e
000000a0: 3c6f a1bc e5a8 c63c 0120 683d c65e 19b7
000000b0: 00ed b1bd e2a0 8ebd 9ea9 763c be19 21bd
000000c0: 3bce 38bd 12c5 2b3e 4813 d53b aca1 67b9
000000d0: 3f8b 2cbe 05d1 37be a71c 81bd 6fda bcbd
000000e0: 3f2b 98bd a3d5 8abe f3de bbbd 0d17 173d
000000f0: 73a1 103d 6955 2035 e9f1 5bbd 8fa0 283e
00000100: eec6 4280 284d 2080 cc80 1680 45b7 4600
00000110: 8813 4c80 20f5 0800 a653 6c00 3708 8400
00000120: d09f 1c00 eb03 1480 f4a5 4b00 e0ed 0100
00000130: 16f4 0f00 1512 4400 7e2c 2e00 e1c0 2200
00000140: ea6d 1400 c824 4d80 9d7c 0b80 eec1 0100
00000150: c7ac b800 b5cf 8400 e91d 3900 0a8a 0300
00000160: 68ef 5080 cbe6 d380 bf25 0d00 85ac 3b80
00000170: 6686 5180 c1af 0080 8c40 4200 b05d 2c80
00000180: f93b 9f3c b73b 243d 9e7f 083d b945 583d
00000190: 6dbe f43c f447 9b3d ea4f f4bc 45ae 223d
000001a0: dcf4 ecbb ac86 e7bd e860 c63c 35e3 5735
000001b0: 685f e8bc 0480 fcbc 3691 00bd 7472 5bbd
000001c0: e1e2 a9bc a2bd 6f3e bdc2 da3a bbc4 48b8
000001d0: 01d0 11be fdd4 353b a416 efbc 4499 35bd
000001e0: 1cee d8bb cd4b 1ebd 1b50 33bd cadd f23c
000001f0: 681e a43c 9e47 7b34 95bd f1bc d527 8d3d
00000200: 9434 95bb 47a1 7bbc 1e3d 23be f93f 4b3e
00000210: 1732 eb3a 43d7 513d 14cc 7d3c e5d6 a2bd
00000220: e65a fdba a88d 5cbd 5f44 36bc 0a92 bc36
00000230: 2aa6 6bb9 5457 abba 16b8 8e3d 5c0d a43c
00000240: a999 f63c 6d1b d6bd cf25 d539 9716 dab7
00000250: 1d96 66bb 3131 293e 85b1 f8bb 044e 59bc
00000260: 9c1f a83d d2ca fc3d b039 283c 73cf 8cbb
00000270: 3c7a 83bb 5ceb 0eb3 0ab5 bb3b cf21 15bd
00000280: 2134 2f0d 4d1f 340c af5b e18b fd4f 6a8e
00000290: 9c9e 1f0d 61a4 5b8e 94b6 480e ba2d 930e
000002a0: 9c8c b88c 10b3 800e 90be b20c 7b9f 5107
000002b0: eb82 228d 5c53 1c8d 956c bb0c 4fd0 058c
000002c0: f2cb 340c ad59 9c8e fda4 8c0b 4b6d 4d08
000002d0: 9c96 880e ea0e 130d 8ccb 288d 6cea 850c
000002e0: 8c21 910c 6646 660d 9e3a 8d0c 0614 2a0d
000002f0: 91c6 090d 4c21 2183 20ed 2c8d 34db 1c8e
00000300: 99be e83c 3def 45bc 2a6a abbd 4f07 b83d
00000310: 208f a2bb 7902 23bc 2aba 0c3e adcb 70be
00000320: a585 a5bb 7b39 1bbe 1b23 3b3d 7a9d d236
00000330: b5a7 b93c 9e45 67bb 3391 06bd bb63 82bd
00000340: 6690 87ba cb55 743e f02b 0d3b 3833 87b9
00000350: f2e7 e4bd 9d01 213e 507e 2bbd c1ff 84bd
00000360: b168 0b3c e3f8 413d 3dcd 653b 171d c23c
00000370: e54b 223c cc81 4e34 8f9d debc d918 2bbe
00000380: 02e0 253d 480a a13d 71fb d2bd 7393 373e
00000390: 30fa 51bb 038e bcbc aacc 8fbe 76b0 503e
000003a0: 81c1 643a 9344 d6bc c611 78bc b0f8 1db7
000003b0: 3e26 19bc 04f7 64bd a592 fc3d 4254 f63b
000003c0: b5c4 d9bc 8518 2f3d ea9c b63b ca40 09ba
000003d0: 1151 99bd 1469 703d d1cb 36bd 6bc6 87bd
000003e0: 7b74 c83d 3f08 55bd 9cdf 04bc a720 943b
000003f0: 51c9 463d 6dd4 c735 04cb 00bb 5955 233e
-1.0546741e-18 -1.2145748e-18 -1.3794787e-18 -2.4362297e-18 -1.3958169e-18 -2.298491e-18 1.6758033e-18 2.9193204e-18
2.2748136e-19 2.6131157e-18 -1.3553847e-18 -1.5732907e-22 1.3757067e-18 1.2823842e-18 -1.494433e-18 1.2269362e-18
-4.9532302e-20 -2.5465644e-18 -3.8270115e-20 1.1269506e-21 2.4798077e-18 -2.0585767e-18 1.3435318e-18 1.0337809e-18
4.1691728e-19 4.1408504e-19 1.0314787e-18 -1.3642988e-18 -1.2692757e-18 -1.5357745e-24 1.3848061e-18 -1.2366315e-18
0.039022673 0.07158453 0.17517175 -0.07544562 0.08050245 0.04769131 -0.16705163 0.14684679
-0.019706361 0.024250457 0.056671146 -9.141577e-06 -0.08687782 -0.0696428 0.015055088 -0.03933119
-0.04511855 0.16774395 0.0065025426 -0.00022090104 -0.16849993 -0.17950828 -0.06304293 -0.092213504
-0.074301235 -0.27116117 -0.091733836 0.036887217 0.03531022 5.9728933e-07 -0.0536975 0.16467498
-6.132505e-39 -2.966414e-39 -2.066585e-39 6.49423e-39 -6.986504e-39 8.22618e-40 9.948241e-39 1.2125232e-38
2.628724e-39 -1.838115e-39 6.947195e-39 1.77169e-40 1.465094e-39 6.2513e-39 4.240394e-39 3.191599e-39
1.87614e-39 -7.084528e-39 -1.054893e-39 1.61404e-40 1.6959712e-38 1.2196797e-38 5.245353e-39 3.25026e-40
-7.432722e-39 -1.9460083e-38 1.207402e-39 -5.480183e-39 -7.486888e-39 -6.3049e-41 6.084298e-39 -4.07437e-39
0.019437777 0.04009601 0.03332483 0.052800868 0.029875958 0.07582083 -0.029823262 0.039716978
-0.007231338 -0.113049835 0.02421613 8.042437e-07 -0.028365806 -0.030822761 -0.031388484 -0.053575948
-0.020738067 0.23412183 0.0016690117 -4.7866935e-05 -0.14239503 0.002774536 -0.0291856 -0.04433562
-0.0066201817 -0.038646508 -0.043777566 0.029646773 0.02003403 2.3402251e-07 -0.029509345 0.06892363
-0.004553387 -0.015358276 -0.15941283 0.19848622 0.0017944005 0.05123068 0.015490551 -0.07951144
-0.0019329458 -0.05384603 -0.011124699 5.619838e-06 -0.00022473247 -0.001307229 0.06968705 0.020025901
0.030102568 -0.1045445 0.00040654695 -2.5998144e-05 -0.003518469 0.16522671 -0.0075895214 -0.013263229
0.08209154 0.123433724 0.01026766 -0.004297191 -0.004012374 -3.327601e-08 0.0057283686 -0.036409196
5.3988786e-31 1.3876115e-31 -8.68048e-32 -2.888124e-30 4.9186577e-31 -2.707298e-30 2.4739811e-30 3.628233e-30
-2.8434315e-31 3.1726867e-30 2.7539933e-31 1.577028e-34 -5.007769e-31 -4.817155e-31 2.8877262e-31 -1.0308633e-31
1.3928068e-31 -3.8543324e-30 5.4174285e-32 6.1818417e-34 3.367162e-30 4.5315824e-31 -5.2014008e-31 2.0632982e-31
2.2360978e-31 7.095896e-31 2.1759769e-31 5.2409397e-31 4.24554e-31 -4.735187e-37 -5.328702e-31 -1.9334027e-30
0.028411197 -0.012080965 -0.083698586 0.08985769 -0.0049609095 -0.00994932 0.13742891 -0.23515196
-0.005051332 -0.15158646 0.045687776 6.2768204e-06 0.022662977 -0.0035289298 -0.032853317 -0.06366678
-0.0010342717 0.23860852 0.0021541081 -0.00025787367 -0.111770526 0.15723272 -0.041868508 -0.06494094
0.008508847 0.047356497 0.0035064959 0.023695512 0.00990579 1.9232465e-07 -0.02717474 -0.16708697
0.040496834 0.07863289 -0.10301865 0.17927341 -0.0032039993 -0.023016935 -0.28085834 0.20379815
0.0008726344 -0.026155746 -0.015140956 -9.415831e-06 -0.009347497 -0.055899635 0.12332658 0.0075173685
-0.026583055 0.042747993 0.005572905 -0.00052357896 -0.07486165 0.05869396 -0.04462797 -0.06629642
0.09787842 -0.052009817 -0.008109953 0.004520494 0.048531834 1.4888479e-06 -0.0019652257 0.15950526

e_conv2.point_conv.bias f4 [32]
00000000: 8282 4ea2 2930 403d 71a7 ab81 79aa 1f3e
00000010: 0690 7f3d 047a 8f8e 4d08 33bd d299 fc3c
00000020: 861a 883a ce38 2489 a5cf 7abb 36ff 423d
00000030: 4a2b 0080 5314 91bd 6831 fb01 4811 6397
00000040: 925f 3e3d 47fd df3d e8b0 7a3d 3e82 5fbd
00000050: 11af 813c ba47 0000 2059 61bd 1f5f 433d
00000060: 62d2 8f0e c146 89bd 9131 c4bc 5a42 262e
00000070: a4f8 0000 a1c4 963d e6ea eb3d 7495 0080
-2.7987296e-18 0.04692093 -6.3055746e-38 0.15592374 0.06239321 -3.536972e-30 -0.043709088 0.030835066
0.0010383881 -1.9767491e-33 -0.0038270738 0.04760667 -1.5529e-41 -0.07083955 9.227373e-38 -7.336947e-25
0.04647786 0.10936981 0.061203867 -0.054567568 0.015830548 2.573e-41 -0.055016637 0.047698136
3.5454813e-30 -0.06702948 -0.023949416 3.7802962e-11 8.9195e-41 0.07361723 0.11519413 -5.3614e-41

e_conv3.depth_conv.weight f4 [32, 1, 3, 3]
00000000: 104e 0080 b029 0180 f124 0080 9b9d 0080
00000010: 4a17 0080 14d2 0100 54cd 0000 dc1a 0000
00000020: b08a 0080 3a23 0000 f6f0 0000 23ad 0000
00000030: 879c 0000 ee5d 0000 53e0 0080 4bb6 0100
00000040: f138 0100 5118 0080 f59d 0080 6cb4 0000
00000050: ec23 0080 3414 0000 d1cf 0000 7b78 0180
00000060: e40d 0280 7ed8 0000 5525 0080 72e5 0000
00000070: c173 0080 c39d 0180 83de 0080 23dd 0000
00000080: 1522 0180 4e0c 0080 0658 0080 f1f6 0080
00000090: 9d07 0280 7a0b 0180 dd88 0080 571d 0180
000000a0: 5e77 0000 ceef 0080 bbe6 0080 85d1 0180
000000b0: a405 0180 ba0c 0100 b089 0080 04ef 0080
000000c0: 5f8e 0000 bbfa 0080 a29e 0180 2165 0000
000000d0: a97f 0000 dabd 0080 9606 0180 f404 0000
000000e0: 9191 0180 7798 0000 573e 0180 b437 0080
000000f0: 7fa9 0080 cff6 0000 5fdf 0080 90af 0180
00000100: 1754 0180 c034 0100 cce5 0000 4ad2 0000
00000110: 42e2 0180 d8db 0000 b9ae 0000 9c5d 0100
00000120: ba96 0080 c6eb 0000 ca09 0180 af52 0080
00000130: 9dea 0080 227b 0180 9f1f 0100 32de 0100
00000140: 5674 0080 f4bf 0180 1ddc 0080 3c7a 0100
00000150: 60de 0080 1e86 0000 4f8d 0100 4dfe 0080
00000160: 1939 0180 0f00 0080 0e53 0000 4eb2 0080
00000170: 35a0 0000 554f 0180 3372 0100 2520 0180
00000180: 5a89 0000 49fb 0080 8703 0180 614d 0000
00000190: 06ef 0080 f984 0100 5f52 0180 02ff 0000
000001a0: 6c2d 0080 7d69 0080 b779 0100 497c 0100
000001b0: e3d2 0000 2d1d 0000 9ad1 0000 52f9 0080
000001c0: 2d16 0000 fd17 0080 882d 0080 65d4 0080
000001d0: dca2 0180 f3ff 0080 a6ca 0000 62e6 0000
000001e0: dd4c 0000 8149 0180 8928 0180 de87 0080
000001f0: 159e 0000 4d08 0080 fb41 0000 c501 0180
00000200: eaaa 0180 7863 0080 63a5 0080 a42a 0000
00000210: c4b1 0080 562e 0080 612f 0180 5f71 0180
00000220: 78e2 0000 b6d4 0100 e58d 0080 b31c 0180
00000230: ada3 0080 b629 0000 3f0f 0000 5873 0100
00000240: b8a3 0000 cf65 0000 c359 0080 0739 0100
00000250: 789c 0080 366e 0080 a015 0000 c6aa 0180
00000260: 64e8 0000 77bd 0000 ef7f 0000 6f2c 0080
00000270: e9fc 0080 5400 0080 fd3a 0000 eff9 0100
00000280: ba70 0080 637c 0000 8416 0080 908c 0080
00000290: 6e24 0080 3f19 0000 f7bc 0080 1741 0180
000002a0: d158 0080 dbbb 0080 c48a 0080 76e6 0000
000002b0: a611 0000 768c 0080 8931 0180 5434 0080
000002c0: d29f 0080 3a2f 0100 334e 0000 c1fe 0180
000002d0: fdf7 0000 41c0 0080 c1a4 0000 cbfe 0000
000002e0: c352 0100 2e3f 0080 2f84 0100 7b29 0000
000002f0: 6834 0080 82bf 0080 5963 0100 49ea 0100
00000300: dcec 0080 4f6d 0180 7da6 0180 991d 0180
00000310: 963b 0180 f925 0000 fbdd 0000 5748 0080
00000320: a803 0100 fe50 0080 ead7 0000 1e3f 0180
00000330: 08d0 0080 fdae 0000 2352 0180 4083 0080
00000340: e3ab 0000 8809 0180 dac8 0080 539b 0080
00000350: acf8 0080 3eb4 0000 5ec8 0080 090b 0180
00000360: f2e4 0180 6051 0100 d275 0080 1ff5 0080
00000370: db32 0100 aef7 0000 f64e 0180 41c2 0100
00000380: f42a 0180 376b 0080 1c00 0180 2c86 0000
00000390: e46d 0000 9e48 0180 8f23 0100 19e0 0000
000003a0: 81a8 0000 a4e2 0080 cd18 0000 4f7e 0100
000003b0: f049 0180 622b 0100 f92a 0100 165c 0000
000003c0: c610 0180 922c 0100 d9eb 0000 5890 0080
000003d0: 9e09 0000 98cf 0080 36f4 0000 7fbb 0080
000003e0: d008 0100 8714 0180 4538 0180 4459 0080
000003f0: 874e 0000 d8f3 0000 9776 0080 50f7 0000
-2.8004e-41 -1.0679e-40 -1.3252e-41 -5.6538e-41 -8.355e-42 1.67197e-40 7.3658e-41 9.635e-42
-4.9752e-41 1.2637e-41 8.644e-41 6.211e-41 5.6151e-41 3.3696e-41 -8.0472e-41 1.5723e-40
1.12262e-40 -8.723e-42 -5.6664e-41 6.4723e-41 -1.2886e-41 7.248e-42 7.455e-41 -1.35056e-40
-1.88654e-40 7.7663e-41 -1.3392e-41 8.231e-41 -4.1525e-41 -1.4843e-40 -7.9822e-41 7.9329e-41
-1.04062e-40 -4.414e-42 -3.1577e-41 -8.8586e-41 -1.86402e-40 -9.5953e-41 -4.9097e-41 -1.0236e-40
4.2821e-41 -8.6026e-41 -8.277e-41 -1.66997e-40 -9.3859e-41 9.6401e-41 -4.9393e-41 -8.5743e-41
5.1073e-41 -8.9945e-41 -1.48742e-40 3.6278e-41 4.5796e-41 -6.8106e-41 -9.4198e-41 1.777e-42
-1.44055e-40 5.4694e-41 -1.14199e-40 -1.9983e-41 -6.0804e-41 8.8538e-41 -8.013e-41 -1.54815e-40
-1.22001e-40 1.10759e-40 8.2436e-41 7.5438e-41 -1.73002e-40 7.8865e-41 6.2679e-41 1.25416e-40
-5.407e-41 8.458e-41 -9.5347e-41 -2.9661e-41 -8.4163e-41 -1.36007e-40 1.03179e-40 1.71544e-40
-4.1733e-41 -1.60695e-40 -7.8962e-41 1.35685e-40 -7.9773e-41 4.8112e-41 1.42527e-40 -9.1226e-41
-1.12318e-40 -2.1e-44 2.9794e-41 -6.3964e-41 5.7471e-41 -1.20294e-40 1.32802e-40 -1.03367e-40
4.9272e-41 -9.0144e-41 -9.3101e-41 2.7758e-41 -8.5745e-41 1.39537e-40 -1.21385e-40 9.148e-41
-1.6294e-41 -3.7842e-41 1.35499e-40 1.3642e-40 7.5652e-41 1.0466e-41 7.5191e-41 -8.9439e-41
7.955e-42 -8.605e-42 -1.6334e-41 -7.6193e-41 -1.50258e-40 -9.1817e-41 7.2697e-41 8.2646e-41
2.7573e-41 -1.18204e-40 -1.06377e-40 -4.874e-41 5.6709e-41 -2.978e-42 2.367e-41 -9.247e-41
-1.53148e-40 -3.5683e-41 -5.933e-41 1.5297e-41 -6.377e-41 -1.6622e-41 -1.08832e-40 -1.32505e-40
8.1242e-41 1.68142e-40 -5.0902e-41 -1.02131e-40 -5.8716e-41 1.4963e-41 5.469e-42 1.33213e-40
5.8731e-41 3.6522e-41 -3.22e-41 1.12293e-40 -5.613e-41 -3.9536e-41 7.758e-42 -1.53097e-40
8.3366e-41 6.7967e-41 4.5894e-41 -1.594e-41 -9.0727e-41 -1.18e-43 2.1161e-41 1.81495e-40
-4.0439e-41 4.4622e-41 -8.077e-42 -5.0424e-41 -1.3069e-41 9.057e-42 -6.7788e-41 -1.15185e-40
-3.1861e-41 -6.739e-41 -4.978e-41 8.2674e-41 6.331e-42 -5.0388e-41 -1.09605e-40 -1.8772e-41
-5.7333e-41 1.08777e-40 2.8053e-41 -1.83224e-40 8.8961e-41 -6.8968e-41 5.9103e-41 9.1402e-41
1.21525e-40 -2.2665e-41 1.39254e-40 1.488e-41 -1.88e-41 -6.87e-41 1.27475e-40 1.75881e-40
-8.4969e-41 -1.31048e-40 -1.5156e-40 -1.02453e-40 -1.13211e-40 1.3622e-41 7.9632e-41 -2.595e-41
9.3147e-41 -2.9055e-41 7.7455e-41 -1.14478e-40 -7.4628e-41 6.2774e-41 -1.213e-40 -4.7084e-41
6.1661e-41 -9.5255e-41 -7.2052e-41 -5.572e-41 -8.9207e-41 6.4659e-41 -7.1878e-41 -9.5794e-41
-1.73966e-40 1.21027e-40 -4.2266e-41 -8.7933e-41 1.10079e-40 8.8851e-41 -1.20161e-40 1.6152e-40
-1.07244e-40 -3.8461e-41 -9.1875e-41 4.8132e-41 3.9421e-41 -1.17886e-40 1.04592e-40 8.0391e-41
6.0448e-41 -8.1303e-41 8.897e-42 1.37146e-40 -1.18359e-40 1.07398e-40 1.07251e-40 3.3034e-41
-9.7853e-41 1.07824e-40 8.4606e-41 -5.1781e-41 3.45e-42 -7.447e-41 8.7606e-41 -6.7261e-41
9.4997e-41 -9.92e-41 -1.12021e-40 -3.2022e-41 2.817e-41 8.7475e-41 -4.2542e-41 8.8719e-41

e_conv3.depth_conv.bias f4 [32]
00000000: 6863 0080 e86e 0000 030d 0100 7309 0000
00000010: d2f8 0000 f5a8 0000 a00f 0180 672b 0080
00000020: ab96 0180 ce13 0100 be4a 0180 dc5e 0080
00000030: fc1c 0100 5d8b 0080 6a50 0100 e206 0100
00000040: b09a 0080 db81 0180 2f34 0180 708d 0080
00000050: a4e9 0000 cf73 0000 b03f 0180 6a12 0180
00000060: 44d4 0080 c00c 0180 fc76 0080 6c0a 0100
00000070: 2e63 0180 0754 0100 f929 0000 f2b4 0000
-3.566e-41 3.9786e-41 9.6503e-41 3.39e-42 8.926e-41 6.061e-41 -9.744e-41 -1.557e-41
-1.45885e-40 9.894e-41 -1.18648e-40 -3.4029e-41 1.02233e-40 -4.9994e-41 1.20683e-40 9.4305e-41
-5.5491e-41 -1.38419e-40 -1.10555e-40 -5.0738e-41 8.3814e-41 4.1544e-41 -1.14682e-40 -9.8441e-41
-7.6147e-41 -9.641e-41 -4.2684e-41 9.5574e-41 -1.27414e-40 1.21979e-40 1.5057e-41 6.4911e-41

e_conv3.point_conv.weight f4 [32, 32, 1, 1]
00000000: 599d 0080 35c3 0180 46e6 0080 e97b 0180
00000010: fcc1 0000 77d4 0080 f639 0180 c525 0180
00000020: 3238 0100 ae19 0080 e32b 0180 31df 0000
00000030: 892f 0080 78cd 0100 8b52 0080 8787 0000
00000040: d486 0000 8e24 0100 16a2 0080 6841 0180
00000050: c174 0080 7747 0100 87fa 0080 c7a0 0080
00000060: 6324 0080 3bae 0100 1c14 0080 2c24 0080
00000070: 6ed8 0080 0443 0000 db31 0100 b119 0180
00000080: 7d39 0080 a02f 0080 4412 0180 0e5f 0000
00000090: a9ed 0180 e9be 0080 9519 0100 4cec 0080
000000a0: 6699 0000 43a1 0000 9165 0000 5f6d 0100
000000b0: fb2a 0100 da5b 0180 e46a 0080 222e 0080
000000c0: c5cb 0100 4a1c 0000 de1f 0100 b77e 0180
000000d0: c441 0000 912c 0100 8465 0100 4308 0180
000000e0: 0913 0100 7c51 0180 d0f0 0080 84ca 0100
000000f0: 4808 0100 882c 0000 221f 0180 6f40 0180
00000100: 3828 0080 8564 0000 8f11 0100 37ed 0080
00000110: 7d0a 0180 2d0d 0180 3fea 0000 c372 0100
00000120: 744c 0180 7be1 0080 213f 0180 639a 0180
00000130: 1066 0080 100c 0000 ee2b 0080 0784 0000
00000140: 96a3 0000 b5b3 0000 3439 0100 889a 0000
00000150: 2098 0100 a919 0000 afa4 0080 f997 0000
00000160: c3ce 0080 0243 0100 c48a 0180 ba13 0000
00000170: edea 0080 e350 0100 c33d 0180 1846 0100
00000180: d1eb 0080 9ef8 0000 2589 0100 8efe 0000
00000190: 7d33 0100 9b32 0080 608a 0100 b99f 0080
000001a0: 043a 0000 f9df 0080 a58c 0000 9d22 0180
000001b0: e2af 0100 5b57 0080 b406 0000 9b50 0180
000001c0: e612 0100 fa24 0080 eb24 0080 a0d3 0180
000001d0: ee75 0100 f338 0000 dfd5 0080 711f 0080
000001e0: 46ef 0000 f41c 0080 ca6f 0180 5d66 0100
000001f0: b15e 0000 c00f 0080 d2c7 0180 0653 0080
00000200: 3d21 0100 7594 0080 590b 0180 a27f 0000
00000210: 2a25 0100 3e6b 0000 d60a 0100 b324 0180
00000220: 6c15 0180 ef06 0200 2e44 0000 8ef3 0000
00000230: 57c5 0080 04e9 0080 c827 0080 31dc 0000
00000240: 9a42 0180 d87b 0180 6777 0180 b719 0100
00000250: 592a 0180 3f54 0180 4004 0180 e611 0180
00000260: c32b 0100 ceec 0080 876a 0080 dbb3 0100
00000270: 7418 0000 9edf 0080 5b7f 0080 aa1d 0100
00000280: 958c 0180 3143 0000 22ca 0180 f11d 0180
00000290: d6ac 0000 c615 0000 fb80 0100 b3dc 0000
000002a0: 541d 0000 1a92 0000 dc84 0080 b4c1 0000
000002b0: 2885 0000 c585 0000 370e 0000 f2ca 0080
000002c0: 5607 0100 36de 0080 5007 0100 ab6b 0080
000002d0: ee47 0080 624e 0080 a8ba 0080 6a1a 0180
000002e0: b954 0100 8f05 0200 7cf3 0000 f3aa 0000
000002f0: 92ec 0080 6aec 0100 b008 0000 fffc 0000
00000300: a223 0180 0198 0100 d22f 0180 157c 0080
00000310: 7902 0180 d44a 0100 289b 0080 02fd 0080
00000320: 4879 0080 3efa 0000 c57b 0180 ecf2 0000
00000330: 6d18 0080 0502 0100 b1db 0080 5c3d 0100
00000340: 5b62 0000 ec43 0080 3f9c 0080 49cc 0080
00000350: 6ea9 0180 3c42 0000 fd89 0080 1d3d 0180
00000360: 6c7d 0180 48c0 0000 4637 0180 d174 0100
00000370: e11f 0100 0521 0000 4632 0200 2f49 0100
00000380: 3660 0100 569d 0080 06a7 0000 4b36 0000
00000390: d313 0180 db12 0100 7a2e 0180 6cb8 0080
000003a0: e149 0000 a3c3 0000 e499 0080 767c 0000
000003b0: 5b7e 0080 c49d 0000 517e 0000 a0bb 0000
000003c0: e615 0100 6789 0080 4f03 0080 2836 0180
000003d0: 0524 0180 7dd6 0000 4895 0000 98a7 0100
000003e0: 5022 0100 1409 0100 001d 0000 1845 0080
000003f0: bab8 0080 f572 0000 b478 0180 2456 0080
-5.6446e-41 -1.61863e-40 -8.2607e-41 -1.36286e-40 6.9588e-41 -7.6218e-41 -1.12628e-40 -1.05385e-40
1.11995e-40 -9.212e-42 -1.07579e-40 8.0066e-41 -1.7052e-41 1.65544e-40 -2.9611e-41 4.8618e-41
4.8367e-41 1.04949e-40 -5.8145e-41 -1.15299e-40 -4.1883e-41 1.17472e-40 -8.9872e-41 -5.7676e-41
-1.3053e-41 1.54338e-40 -7.214e-42 -1.2976e-41 -7.764e-41 2.404e-41 1.0972e-40 -1.01052e-40
-2.0623e-41 -1.7085e-41 -9.8388e-41 3.4099e-41 -1.77092e-40 -6.8486e-41 1.01013e-40 -8.4767e-41
5.5029e-41 5.785e-41 3.6435e-41 1.3107e-40 1.07254e-40 -1.24786e-40 -3.8345e-41 -1.655e-41
1.64934e-40 1.0148e-41 1.03267e-40 -1.37292e-40 2.3592e-41 1.07823e-40 1.28252e-40 -9.4799e-41
9.8664e-41 -1.21067e-40 -8.6387e-41 1.64484e-40 9.4806e-41 1.5975e-41 -1.03004e-40 -1.1495e-40
-1.4428e-41 3.606e-41 9.8134e-41 -8.5097e-41 -9.5598e-41 -9.6562e-41 8.4032e-41 1.33004e-40
-1.19262e-40 -8.0887e-41 -1.14482e-40 -1.47219e-40 -3.6613e-41 4.327e-42 -1.5759e-41 4.7362e-41
5.8684e-41 6.4467e-41 1.12356e-40 5.5435e-41 1.46408e-40 9.205e-42 -5.9077e-41 5.4518e-41
-7.4172e-41 1.15873e-40 -1.41615e-40 7.077e-42 -8.4275e-41 1.20852e-40 -1.13991e-40 1.1698e-40
-8.4595e-41 8.9187e-41 1.41034e-40 9.1317e-41 1.10306e-40 -1.8154e-41 1.41475e-40 -5.7298e-41
2.0812e-41 -8.0346e-41 5.0454e-41 -1.04252e-40 1.5493e-40 -3.1337e-41 2.405e-42 -1.20751e-40
9.8615e-41 -1.3265e-41 -1.3244e-41 -1.67752e-40 1.3414e-40 2.043e-41 -7.6722e-41 -1.1279e-41
8.5835e-41 -1.0386e-41 -1.31938e-40 1.28557e-40 3.3969e-41 -5.65e-42 -1.63518e-40 -2.9783e-41
1.03759e-40 -5.3256e-41 -9.5906e-41 4.5786e-41 1.05167e-40 3.8471e-41 9.5723e-41 -1.05e-40
-9.952e-41 1.86158e-40 2.4458e-41 8.7371e-41 -7.0792e-41 -8.359e-41 -1.4271e-41 7.899e-41
-1.15728e-40 -1.36262e-40 -1.34669e-40 1.0106e-40 -1.07027e-40 -1.22057e-40 -9.336e-41 -9.8256e-41
1.07534e-40 -8.495e-41 -3.8215e-41 1.56355e-40 8.772e-42 -8.0219e-41 -4.5687e-41 1.02477e-40
-1.42267e-40 2.4104e-41 -1.64347e-40 -1.02576e-40 6.2002e-41 7.811e-42 1.38105e-40 7.9172e-41
1.0521e-41 5.2411e-41 -4.7661e-41 6.9488e-41 4.7767e-41 4.7987e-41 5.1e-42 -7.2803e-41
9.4467e-41 -7.9714e-41 9.4459e-41 -3.8624e-41 -2.5804e-41 -2.8118e-41 -6.696e-41 -1.01311e-40
1.22228e-40 1.85665e-40 8.7346e-41 6.1325e-41 -8.4865e-41 1.76645e-40 3.116e-42 9.0758e-41
-1.04618e-40 1.46364e-40 -1.0899e-40 -4.4512e-41 -9.2723e-41 1.18679e-40 -5.566e-41 -9.0762e-41
-4.3508e-41 8.977e-41 -1.36236e-40 8.7144e-41 -8.762e-42 9.256e-41 -7.881e-41 1.13847e-40
3.5283e-41 -2.4366e-41 -5.605e-41 -7.3284e-41 -1.52615e-40 2.376e-41 -4.9501e-41 -1.13759e-40
-1.36828e-40 6.8978e-41 -1.11664e-40 1.33741e-40 1.03271e-40 1.1845e-41 2.01706e-40 1.18089e-40
1.2635e-40 -5.6441e-41 5.9917e-41 1.9477e-41 -9.8947e-41 9.86e-41 -1.08508e-40 -6.6158e-41
2.6503e-41 7.0181e-41 -5.5206e-41 4.4648e-41 -4.5328e-41 5.6596e-41 4.5314e-41 6.7307e-41
9.9691e-41 -4.929e-41 -1.187e-42 -1.11263e-40 -1.04757e-40 7.6944e-41 5.3552e-41 1.51957e-40
1.04145e-40 9.5092e-41 1.0403e-41 -2.4786e-41 -6.6267e-41 4.1239e-41 -1.35136e-40 -3.0901e-41

e_conv3.point_conv.bias f4 [32]
00000000: 8a89 0100 f41e 0080 a613 0180 ad23 0000
00000010: 8718 0100 d6cf 0080 d6d9 0080 4f05 0080
00000020: b36b 0080 0947 0000 f7ce 0080 9e33 0000
00000030: 9553 0180 246a 0180 3408 0000 fe8f 0180
00000040: 8931 0100 b735 0100 4b95 0080 5de0 0080
00000050: cf2e 0180 a600 0000 9d82 0080 fb6a 0000
00000060: 8785 0080 fdc8 0000 15fa 0000 8356 0000
00000070: 6311 0200 a5c4 0080 97b5 0080 ac0b 0000
1.41175e-40 -1.1104e-41 -9.8884e-41 1.2798e-41 1.00634e-40 -7.4557e-41 -7.8145e-41 -1.904e-42
-3.8635e-41 2.5483e-41 -7.4245e-41 1.8517e-41 -1.21819e-40 -1.29912e-40 2.943e-42 -1.4349e-40
1.09605e-40 1.11105e-40 -5.3556e-41 -8.0486e-41 -1.08627e-40 2.33e-43 -4.6855e-41 3.8377e-41
-4.79e-41 7.2101e-41 8.9713e-41 3.1035e-41 1.89908e-40 -7.0543e-41 -6.5142e-41 4.187e-42

e_conv4.depth_conv.weight f4 [32, 1, 3, 3]
00000000: 0801 0100 1150 0180 6326 0080 4f89 0000
00000010: b3ae 0000 567a 0180 bbf8 0080 1a9b 0000
00000020: fde4 0080 7d02 0080 5a0b 0100 09c2 0000
00000030: 8ffb 0080 e327 0100 ea33 0080 024e 0000
00000040: f69a 0180 0630 0100 3d02 0180 5030 0180
00000050: aea8 0000 7c95 0080 aa5b 0080 dc4d 0080
00000060: 764c 0000 8639 0180 aee1 0080 908f 0080
00000070: d154 0080 eaf5 0000 3915 0080 523b 0100
00000080: 0e08 0080 262a 0080 e2a9 0000 f365 0180
00000090: 1e4d 0100 780a 0200 e55a 0100 53ec 0000
000000a0: 7d66 0000 bc48 0000 8f88 0080 8219 0000
000000b0: 41db 0080 a597 0000 ac24 0180 e22b 0180
000000c0: e668 0080 ef64 0080 49d6 0080 fd2d 0100
000000d0: 28db 0080 c780 0000 8470 0000 a83d 0100
000000e0: 8105 0180 170b 0180 7a5a 0100 cad8 0000
000000f0: 7c71 0100 e56e 0080 40ec 0080 fe2f 0000
00000100: 644b 0100 00fe 0080 1653 0080 1aaf 0080
00000110: 44fe 0000 b085 0180 4143 0080 756f 0000
00000120: 3b55 0080 3027 0180 4707 0180 2413 0080
00000130: 3a1b 0100 fb61 0100 d22d 0000 228d 0100
00000140: 2de8 0100 f300 0100 b7a9 0100 69d4 0080
00000150: a7ba 0080 892a 0000 b3ac 0000 762b 0100
00000160: e9b3 0000 8401 0100 f611 0100 19cd 0180
00000170: 0773 0180 505a 0100 2668 0000 d7ae 0000
00000180: f74e 0100 6b97 0080 4072 0080 222b 0080
00000190: a1e3 0180 9178 0000 7960 0000 1a14 0000
000001a0: d989 0100 2e2e 0080 b7d5 0080 a705 0000
000001b0: f811 0100 55b3 0000 27ee 0080 f230 0100
000001c0: 3afb 0080 bd40 0180 9019 0100 df89 0000
000001d0: b167 0000 796b 0100 8554 0000 27e9 0080
000001e0: 0ea8 0000 2ebb 0080 d583 0100 2b0a 0180
000001f0: dab0 0000 44f4 0080 2c8a 0180 9f52 0080
00000200: 2199 0080 949b 0180 d31e 0000 64fe 0080
00000210: 1089 0000 8f0c 0000 3b06 0000 1f2f 0100
00000220: 4da1 0000 1607 0080 8afe 0080 2a1c 0000
00000230: 3e98 0000 970c 0000 ffaf 0180 c55d 0180
00000240: b9a6 0180 4113 0000 f7af 0080 8447 0100
00000250: a8f1 0000 2233 0180 fc1f 0080 e13a 0180
00000260: 6319 0180 d11e 0000 8a72 0080 a529 0000
00000270: a921 0180 b4e3 0000 018e 0000 205d 0080
00000280: e023 0000 88d6 0080 048f 0180 1b10 0000
00000290: 316c 0000 e233 0180 f74d 0100 af27 0100
000002a0: 8049 0100 baff 0000 d149 0100 84ff 0000
000002b0: 1d5f 0080 57a3 0000 9404 0180 69fc 0180
000002c0: a007 0000 e1da 0000 b92d 0100 8a32 0080
000002d0: 2729 0180 a655 0000 f31f 0000 bae1 0080
000002e0: 43ee 0080 7390 0100 0ccb 0080 4540 0000
000002f0: cbce 0000 4a55 0080 e62e 0080 b677 0080
00000300: af2b 0100 0973 0180 96ac 0000 11b6 0000
00000310: 7be3 0080 91d0 0080 1d30 0080 2549 0100
00000320: 599f 0000 64c1 0080 d8d6 0000 5d50 0000
00000330: 1126 0000 19d3 0000 e473 0100 0816 0180
00000340: 5e9f 0080 b906 0180 3f42 0000 2202 0180
00000350: b09e 0000 b9e5 0000 5d92 0000 e218 0180
00000360: 4bac 0000 f079 0000 987c 0100 3cfb 0080
00000370: 9605 0180 c0ff 0080 0f64 0100 2619 0180
00000380: 0d90 0000 0337 0180 590a 0080 8c5d 0000
00000390: a963 0180 ee50 0180 ab55 0000 1716 0100
000003a0: c58b 0080 4177 0000 9c58 0100 f569 0000
000003b0: d9ad 0080 4a0c 0000 cc2f 0100 8ab8 0000
000003c0: fb74 0100 bba8 0000 c3bb 0080 355c 0080
000003d0: 8357 0100 a40c 0280 ee8c 0080 8652 0100
000003e0: a485 0080 d22d 0100 887b 0180 390a 0100
000003f0: 6b88 0080 8e21 0180 5bf7 0000 b241 0180
9.2205e-41 -1.20558e-40 -1.377e-41 4.9257e-41 6.267e-41 -1.35721e-40 -8.9228e-41 5.564e-41
-8.2146e-41 -8.93e-43 9.5908e-41 6.9607e-41 -9.0242e-41 1.06144e-40 -1.8623e-41 2.7984e-41
-1.47425e-40 1.09063e-40 -9.2638e-41 -1.09167e-40 6.0511e-41 -5.3625e-41 -3.2883e-41 -2.793e-41
2.7429e-41 -1.12471e-40 -8.0959e-41 -5.15e-41 -3.0426e-41 8.8217e-41 -7.613e-42 1.13116e-40
-2.89e-42 -1.512e-41 6.0942e-41 -1.28408e-40 1.195e-40 1.87426e-40 1.24442e-40 8.4777e-41
3.6766e-41 2.6092e-41 -4.8988e-41 9.15e-42 -7.8653e-41 5.44e-41 -1.04991e-40 -1.07578e-40
-3.763e-41 -3.6208e-41 -7.6871e-41 1.08333e-40 -7.8618e-41 4.6197e-41 4.0363e-41 1.13954e-40
-9.381e-41 -9.5814e-41 1.24292e-40 7.7769e-41 1.32546e-40 -3.9781e-41 -8.475e-41 1.7216e-41
1.1888e-40 -9.1118e-41 -2.9806e-41 -6.2815e-41 9.1213e-41 -1.39794e-40 -2.4126e-41 3.9983e-41
-3.0575e-41 -1.05893e-40 -9.4446e-41 -6.866e-42 1.01603e-40 1.26984e-40 1.6437e-41 1.42464e-40
1.75124e-40 9.2176e-41 1.52718e-40 -7.6198e-41 -6.6958e-41 1.5259e-41 6.1953e-41 1.07426e-40
6.454e-41 9.2379e-41 9.8279e-41 -1.6541e-40 -1.331e-40 1.24234e-40 3.7361e-41 6.2721e-41
1.20163e-40 -5.4319e-41 -4.0985e-41 -1.5473e-41 -1.73493e-40 4.3251e-41 3.4608e-41 7.211e-42
1.41286e-40 -1.6566e-41 -7.6666e-41 2.028e-42 9.8281e-41 6.4332e-41 -8.5433e-41 1.09394e-40
-9.0123e-41 -1.15059e-40 1.01006e-40 4.9459e-41 3.7197e-41 1.3039e-40 3.032e-41 -8.364e-41
6.0287e-41 -6.7147e-41 1.39128e-40 -9.5483e-41 6.3442e-41 -8.7626e-41 -1.41402e-40 -2.9639e-41
-5.4932e-41 -1.47646e-40 1.1058e-41 -9.1258e-41 4.9169e-41 4.505e-42 2.235e-42 1.0874e-40
5.7864e-41 -2.542e-42 -9.1311e-41 1.0103e-41 5.4614e-41 4.516e-42 -1.54971e-40 -1.25474e-40
-1.51644e-40 6.907e-42 -6.3124e-41 1.1749e-40 8.669e-41 -1.10178e-40 -1.1474e-41 -1.12957e-40
-1.00943e-40 1.1055e-41 -4.1089e-41 1.4939e-41 -1.0391e-40 8.1684e-41 5.0941e-41 -3.3407e-41
1.287e-41 -7.696e-41 -1.4314e-40 5.778e-42 3.8812e-41 -1.10448e-40 1.19804e-40 1.06071e-40
1.18202e-40 9.1737e-41 1.18316e-40 9.1662e-41 -3.412e-41 5.8595e-41 -9.3478e-41 -1.82383e-40
2.735e-42 7.8519e-41 1.08238e-40 -1.813e-41 -1.06598e-40 3.0725e-41 1.1461e-41 -8.0975e-41
-8.5472e-41 1.43654e-40 -7.284e-41 2.3056e-41 7.4183e-41 -3.0596e-41 -1.6824e-41 -4.2944e-41
1.07506e-40 -1.33102e-40 6.1912e-41 6.5313e-41 -8.1605e-41 -7.482e-41 -1.726e-41 1.18075e-40
5.7163e-41 -6.9375e-41 7.7071e-41 2.8829e-41 1.3656e-41 7.5728e-41 1.33409e-40 -9.9739e-41
-5.717e-41 -9.4247e-41 2.3765e-41 -9.26e-41 5.6926e-41 8.2409e-41 5.2505e-41 -1.00762e-40
6.1807e-41 4.3743e-41 1.36531e-40 -9.0126e-41 -9.384e-41 -9.1746e-41 1.2773e-40 -1.00857e-40
5.1676e-41 -1.1157e-40 -3.712e-42 3.3558e-41 -1.27587e-40 -1.20868e-40 3.0732e-41 9.976e-41
-5.014e-41 4.278e-41 1.23623e-40 3.801e-41 -6.2365e-41 4.408e-42 1.08982e-40 6.62e-41
1.338e-40 6.0529e-41 -6.7356e-41 -3.3078e-41 1.23229e-40 -1.88206e-40 -5.0556e-41 1.2144e-40
-4.7941e-41 1.08273e-40 -1.3615e-40 9.5503e-41 -4.8938e-41 -1.03873e-40 8.8734e-41 -1.15403e-40

e_conv4.depth_conv.bias f4 [32]
00000000: c873 0000 1205 0100 f103 0100 d80d 0100
00000010: cc31 0180 ff1d 0180 2acd 0000 01a3 0000
00000020: 827c 0180 8a5a 0100 d80e 0100 9e3e 0000
00000030: b68e 0180 fa75 0000 cf9e 0100 8809 0180
00000040: 1dc1 0080 a38f 0100 af61 0180 9524 0080
00000050: ce81 0080 6d07 0100 e2ab 0080 9e7e 0000
00000060: c1b8 0000 a3d6 0080 5244 0080 2d62 0180
00000070: d8a7 0080 5e38 0000 d396 0000 25a8 0080
4.1534e-41 9.3654e-41 9.325e-41 9.6802e-41 -1.09699e-40 -1.02596e-40 7.3599e-41 5.8475e-41
-1.365e-40 1.24315e-40 9.716e-41 2.2463e-41 -1.4303e-40 4.2322e-41 1.48805e-40 -9.5255e-41
-6.9276e-41 1.43363e-40 -1.26878e-40 -1.3123e-41 -4.6565e-41 9.45e-41 -6.166e-41 4.5422e-41
6.6277e-41 -7.6997e-41 -2.4509e-41 -1.27054e-40 -6.0211e-41 2.0221e-41 5.4106e-41 -6.0319e-41

e_conv4.point_conv.weight f4 [32, 32, 1, 1]
00000000: e997 0100 7d0f 0180 7e02 0000 d7ee 0080
00000010: 2138 0180 c096 0080 eab0 0180 cbc3 0080
00000020: bb69 0080 fa72 0100 a08b 0180 9b21 0100
00000030: 8d96 0180 7836 0100 89df 0100 b741 0180
00000040: 8028 0080 98d7 0000 6294 0100 fdc9 0000
00000050: 5a7e 0000 22e1 0180 0637 0000 851c 0080
00000060: 4ffd 0080 0251 0100 c014 0100 b564 0080
00000070: fa46 0180 2d26 0180 c208 0180 ad06 0280
00000080: b617 0080 893c 0180 9977 0100 e09b 0000
00000090: 74a7 0000 08da 0000 4001 0200 ab49 0000
000000a0: ecc9 0000 20c7 0000 e6a5 0180 15b8 0080
000000b0: ab3f 0000 253d 0000 9620 0100 5fe5 0080
000000c0: 5098 0080 b335 0100 19ad 0080 bcf3 0080
000000d0: 6069 0000 a0ba 0180 e40f 0180 d0fe 0100
000000e0: b712 0100 600e 0280 f990 0080 5e61 0080
000000f0: 1758 0000 7d67 0100 7cfd 0000 57b5 0100
00000100: 1b68 0180 c607 0000 bd3f 0000 767f 0000
00000110: 5a61 0180 30ac 0180 8d35 0080 400a 0000
00000120: 2f2f 0100 a5a5 0080 b249 0100 1f5e 0100
00000130: 5c49 0180 1058 0000 b51b 0000 2c34 0100
00000140: c55f 0000 4b36 0000 7e4a 0000 8396 0180
00000150: 3aec 0080 6e00 0000 c1d7 0000 f843 0180
00000160: 1d71 0180 21e8 0100 fe8b 0080 b710 0180
00000170: c8e5 0000 2216 0100 8bd5 0000 6474 0180
00000180: b5b3 0000 92eb 0000 c170 0100 592c 0000
00000190: a48b 0000 170d 0000 cb2d 0080 9143 0100
000001a0: 3ee4 0080 d6ce 0080 2b10 0180 0beb 0080
000001b0: 52d5 0080 e7b4 0180 3015 0080 5bb1 0180
000001c0: 4e26 0000 a72d 0000 1b7c 0080 ea0f 0180
000001d0: b026 0000 45f4 0000 9a6e 0000 2ca8 0180
000001e0: 025e 0180 6cd3 0080 7929 0080 fcae 0080
000001f0: 26d0 0000 7a1a 0180 c92e 0080 01f3 0080
00000200: ddc9 0000 cea0 0100 0c9c 0080 4c7d 0000
00000210: 9e0d 0100 5f5e 0100 2fdb 0080 b4ef 0080
00000220: 51ec 0000 6e7f 0000 8589 0000 b377 0080
00000230: 715f 0080 ee99 0080 e755 0180 dabf 0100
00000240: eb18 0280 f0cd 0000 0453 0000 3f03 0100
00000250: 3d09 0000 77ce 0180 ab92 0100 7d0e 0100
00000260: e510 0080 720f 0280 d135 0180 7846 0180
00000270: 6aa7 0080 b11c 0200 9458 0000 18f5 0100
00000280: 032b 0100 2623 0080 28b0 0080 5778 0180
00000290: 93cd 0100 b040 0000 08ca 0000 4845 0180
000002a0: 1c9f 0080 d465 0080 8138 0000 e43d 0100
000002b0: 513a 0080 b1d6 0080 e54f 0000 4b54 0100
000002c0: 6ed8 0080 12f1 0000 4a1d 0100 efc4 0080
000002d0: efa2 0080 c3db 0080 a3b2 0000 b909 0100
000002e0: 3a04 0100 f603 0000 a4f5 0080 640c 0180
000002f0: f722 0100 2156 0080 3f2f 0000 e2cc 0000
00000300: 5253 0080 7878 0000 ebf7 0180 bd40 0000
00000310: 375d 0180 78aa 0180 08ac 0000 76f7 0000
00000320: 2401 0180 ce29 0180 330f 0180 3196 0000
00000330: b265 0080 3d78 0080 b85b 0180 e939 0100
00000340: 6330 0080 a222 0000 467d 0100 bd37 0100
00000350: f7e4 0080 812f 0080 3d3c 0000 e816 0000
00000360: bd62 0180 bd37 0080 856a 0180 44e6 0000
00000370: a64a 0180 cdb5 0080 b57e 0000 8073 0100
00000380: 15b1 0180 fee2 0080 23fa 0000 32aa 0000
00000390: 6bab 0080 0319 0200 5231 0180 7b93 0180
000003a0: a99e 0080 1895 0080 6ab5 0100 399d 0100
000003b0: 9a79 0000 ba3e 0000 999e 0000 d9bc 0000
000003c0: 7ceb 0000 dc1e 0100 3ae4 0100 524b 0100
000003d0: 5169 0080 4a48 0100 7c49 0180 9b19 0100
000003e0: 1524 0100 419d 0100 6ad2 0000 6641 0080
000003f0: 3b88 0080 1c46 0180 5601 0100 5bd9 0000
1.4633e-40 -9.7392e-41 8.94e-43 -8.568e-41 -1.11971e-40 -5.4079e-41 -1.553e-40 -7.0237e-41
-3.7929e-41 1.33081e-40 -1.41924e-40 1.03891e-40 -1.45843e-40 1.11375e-40 1.72025e-40 -1.1541e-40
-1.4529e-41 7.734e-41 1.45065e-40 7.246e-41 4.5326e-41 -1.72598e-40 1.9739e-41 -1.0231e-41
-9.087e-41 1.20896e-40 9.9279e-41 -3.6127e-41 -1.17297e-40 -1.0553e-40 -9.4977e-41 -1.86066e-40
-8.506e-42 -1.13551e-40 1.34739e-40 5.5917e-41 6.0071e-41 7.8215e-41 1.8412e-40 2.6427e-41
7.2436e-41 7.1433e-41 -1.51349e-40 -6.6036e-41 2.284e-41 2.1935e-41 1.03525e-40 -8.2283e-41
-5.464e-41 1.11099e-40 -6.2096e-41 -8.7435e-41 3.7801e-41 -1.58784e-40 -9.7536e-41 1.83245e-40
9.8549e-41 -1.88828e-40 -5.2006e-41 -3.4929e-41 3.16e-41 1.2896e-40 9.0933e-41 1.56888e-40
-1.29182e-40 2.789e-42 2.2865e-41 4.5724e-41 -1.26759e-40 -1.53605e-40 -1.921e-41 3.677e-42
1.08762e-40 -5.9422e-41 1.18272e-40 1.256e-40 -1.18152e-40 3.1591e-41 9.94e-42 1.10551e-40
3.4356e-41 1.9477e-41 2.6723e-41 -1.45829e-40 -8.4742e-41 1.54e-43 7.7398e-41 -1.16218e-40
-1.32413e-40 1.75108e-40 -5.022e-41 -9.7832e-41 8.243e-41 9.9775e-41 7.6605e-41 -1.33589e-40
6.4467e-41 8.4507e-41 1.32284e-40 1.5909e-41 5.0094e-41 4.696e-42 -1.6427e-41 1.16074e-40
-8.1878e-41 -7.4199e-41 -9.7635e-41 -8.4318e-41 -7.6525e-41 -1.56731e-40 -7.6e-42 -1.55459e-40
1.3741e-41 1.6377e-41 -4.452e-41 -9.7544e-41 1.3878e-41 8.7627e-41 3.9676e-41 -1.52164e-40
-1.25559e-40 -7.5844e-41 -1.4878e-41 -6.2773e-41 7.467e-41 -1.01333e-40 -1.6783e-41 -8.7173e-41
7.2415e-41 1.49521e-40 -5.5979e-41 4.4948e-41 9.672e-41 1.2569e-40 -7.8628e-41 -8.5989e-41
8.4774e-41 4.5713e-41 4.9333e-41 -4.294e-41 -3.4238e-41 -5.522e-41 -1.22651e-40 1.60659e-40
-1.9261e-40 7.3876e-41 2.978e-41 9.3e-41 3.314e-42 -1.65901e-40 1.4445e-40 9.7033e-41
-6.06e-42 -1.89212e-40 -1.11141e-40 -1.17115e-40 -6.0057e-41 1.93964e-40 3.1776e-41 1.79759e-40
1.07265e-40 -1.2609e-41 -6.3193e-41 -1.35005e-40 1.65582e-40 2.3206e-41 7.2475e-41 -1.16689e-40
-5.7078e-41 -3.6529e-41 2.027e-41 1.14038e-40 -2.092e-41 -7.7017e-41 2.8661e-41 1.22074e-40
-7.764e-41 8.648e-41 1.02342e-40 -7.0646e-41 -5.845e-41 -7.8836e-41 6.4083e-41 9.5323e-41
9.3352e-41 1.421e-42 -8.8119e-41 -9.628e-41 1.04379e-40 -3.0897e-41 1.6949e-41 7.3498e-41
-2.989e-41 4.3216e-41 -1.80772e-40 2.3224e-41 -1.25275e-40 -1.52988e-40 6.1713e-41 8.8772e-41
-9.2245e-41 -1.06832e-40 -9.7288e-41 5.3879e-41 -3.6481e-41 -4.3133e-41 -1.24738e-40 1.1261e-40
-1.7358e-41 1.2424e-41 1.36775e-40 1.1183e-40 -8.2137e-41 -1.7041e-41 2.161e-41 8.217e-42
-1.27256e-40 -1.9995e-41 -1.30048e-40 8.2604e-41 -1.18614e-40 -6.5218e-41 4.5454e-41 1.33269e-40
-1.5536e-40 -8.143e-41 8.9732e-41 6.1055e-41 -6.1493e-41 1.92644e-40 -1.09528e-40 -1.44742e-40
-5.6917e-41 -5.3485e-41 1.56915e-40 1.48236e-40 4.3622e-41 2.2502e-41 5.6894e-41 6.7746e-41
8.4476e-41 1.02906e-40 1.73708e-40 1.18855e-40 -3.778e-41 1.17768e-40 -1.18197e-40 1.01021e-40
1.04779e-40 1.48248e-40 7.5482e-41 -2.346e-41 -4.887e-41 -1.16986e-40 9.2315e-41 7.7972e-41

e_conv4.point_conv.bias f4 [32]
00000000: 9a82 0000 90b7 0000 07d0 0000 b938 0180
00000010: fcf5 0180 e1b1 0100 e692 0000 1ae3 0080
00000020: f775 0080 8488 0080 7416 0100 cfc3 0000
00000030: ce2a 0100 6d09 0080 7840 0080 555e 0080
00000040: 3ae0 0080 a846 0100 a018 0180 8728 0180
00000050: 3329 0000 5c79 0000 b5c0 0080 fd3f 0180
00000060: cdc1 0080 7b21 0100 3c78 0080 cf2e 0000
00000070: 88c2 0000 0950 0000 e155 0080 65b3 0100
4.6851e-41 6.585e-41 7.4626e-41 -1.12184e-40 -1.80078e-40 1.55646e-40 5.2697e-41 -8.1469e-41
-4.2318e-41 -4.8973e-41 9.989e-41 7.0243e-41 1.07191e-40 -3.381e-42 -2.3127e-41 -3.384e-41
-8.0437e-41 1.17182e-40 -1.00669e-40 -1.06374e-40 1.478e-41 4.3536e-41 -6.913e-41 -1.1479e-40
-6.9523e-41 1.03846e-40 -4.3132e-41 1.6792e-41 6.9785e-41 2.8711e-41 -3.0808e-41 1.5619e-40
